Interpolation/data.pt (torch, 728767 bytes, 80 tensors)

means f8 [2]
000000 ac 70 5d 44 74 6e 03 40 de a3 9e 08 7b 34 d1 bf
       2.4289326993003524 -0.26882816163793943

stds f8 [2]
000000 94 bb 5c e5 85 78 d8 3f fe 12 57 39 2e f6 e1 3f
       0.3823561420312498 0.561301338188599

weight f8 [64, 2]
000000 c7 07 c1 0e 7f 14 da bf 84 e5 3b 2e b2 d9 df 3f
       -0.4075009960253024 0.4976621104720709
000010 77 0d 33 0f 12 73 db 3f f0 22 7c 9e c5 ca ce 3f
       0.4288983486587407 0.24056310881157783
000020 a9 3d 78 bf 5d b5 e2 3f f4 4e ee 90 89 60 c6 3f
       0.5846394290583038 0.1748210866613743
000030 1a 93 d5 42 d3 3f e1 3f 10 41 21 a3 b0 07 d4 3f
       0.5390411668164206 0.31296935969022943
000040 66 c4 3a b9 e9 c7 da bf 73 dc 9d 5c 1a d4 d5 3f
       -0.41845172013115073 0.34107073826402895
000050 e1 16 d8 10 99 77 de 3f 36 1c 3c ea ed ee c3 3f
       0.4760496773236423 0.15572904526945458
000060 02 32 33 aa be df d4 bf da 29 13 07 9c 9f e3 bf
       -0.32615629788486455 -0.6132335794621284
000070 ef 8d b5 f1 90 7d cb bf bd df 6a 82 5a 52 e4 3f
       -0.21476947595793613 0.6350529238907182
000080 e8 56 88 6d 72 ed e9 bf 85 65 fc e9 7c 1e d0 bf
       -0.8102352275188567 -0.2518608365076818
000090 86 36 25 f1 7f 23 e1 3f d6 d5 3c 8d 23 48 ea bf
       0.5355834684248328 -0.8213060148761382
0000a0 7c 00 9a 67 04 ff e1 bf e2 46 f8 51 4c 3f cd bf
       -0.5623800300090944 -0.22849420549805816
0000b0 0b 74 4e ad 68 e3 ca 3f d6 45 07 f6 b8 a9 db 3f
       0.2100649687025967 0.4322340395566163
0000c0 4d 7b c2 00 26 41 e2 3f 20 19 1e e7 aa 09 e8 3f
       0.5704526915395519 0.7511801256194168
0000d0 ba 91 13 68 49 67 e8 bf 46 22 cb a3 3d 7f be 3f
       -0.7626082451575293 0.1191290402304129
0000e0 17 51 bc 62 30 37 e9 bf 4a 84 6a 7e 2d 86 e5 3f
       -0.7879869392805031 0.6726291150154193
0000f0 83 0e 75 8c 39 7b c2 3f 94 7b 8a bf 1b 26 e0 bf
       0.1443855224443845 -0.5046519032510894
000100 2c 4a 27 72 1b d7 e8 3f 07 f1 49 ab a2 3d e1 bf
       0.7762582044181889 -0.5387738557324447
000110 cb eb 45 95 d9 38 e7 bf cf 1a dd 83 83 fb d2 3f
       -0.7256896892062 0.29660117986024387
000120 98 b6 f1 86 c7 09 e0 bf ed af fb c7 3f f4 d6 3f
       -0.5011937747601278 0.3586577847443085
000130 cf a0 5a f8 26 9d e2 3f 65 76 14 ee 50 46 e2 bf
       0.5816836214699154 -0.5710835123060859
000140 83 ff d4 4a 01 68 d7 3f cc f3 a3 72 b3 c9 d6 3f
       0.36572296436133217 0.3560608500991378
000150 4f c8 69 35 5d e1 eb 3f 02 39 71 f5 5c 64 d5 bf
       0.8712602656580745 -0.33425067872020986
000160 31 15 2b 09 46 83 69 3f 28 e0 bb d3 e7 05 6a bf
       0.0031143539320931603 -0.0031766441223872906
000170 d4 cd cc b3 ee c2 e0 bf f3 8f 4a 90 64 a6 cf bf
       -0.5237954627722794 -0.2472654060885585
000180 5f 2b e3 9b 36 fb e2 bf 8a b3 d4 6d ad aa e4 bf
       -0.5931656880069162 -0.6458346505292962
000190 ef 28 37 b7 f3 4d dd bf c2 a6 ef 22 8c 25 e0 3f
       -0.45788281337867337 0.5045834238382769
0001a0 ca 7b 41 0b 94 85 a9 bf 3d 95 fb 3f 37 23 ec 3f
       -0.04984724652671664 0.8792988061583525
0001b0 e7 4f 4e 00 5c 0a cb bf 31 ce 2c 8b 87 a8 c1 bf
       -0.21125364317833759 -0.1379556111875089
0001c0 8c a7 e4 e8 ef 39 b9 3f f1 5b df 48 7b 59 c2 bf
       0.09854030071133318 -0.14335576112964035
0001d0 e5 66 76 01 49 10 e1 3f 76 03 50 a9 08 68 c8 3f
       0.5332379368366814 0.1906748606416177
0001e0 2f 39 15 8b 0b 0d db 3f 99 db d0 74 70 b4 d9 3f
       0.42267120916666817 0.4016381397990983
0001f0 1c f2 37 9b fa 4f e0 bf 3f e1 c3 6a 7f 5e dd 3f
       -0.5097630530941077 0.4588926832798456
000200 92 57 a8 17 cd 38 b6 3f f9 eb d0 fb 8c 55 ec bf
       0.08680421664788998 -0.8854432028086868
000210 86 ae d8 94 3e 3f c4 3f 14 27 54 40 78 8c d9 3f
       0.15818006770983944 0.3991985920152825
000220 37 34 77 7f b2 d6 dc bf fc 72 ab 50 27 af de 3f
       -0.45060408065620855 0.47944052579786933
000230 ae a5 a2 b2 41 f0 e4 3f 30 24 0d 2d 28 a3 dc bf
       0.6543282021495338 -0.4474583091692379
000240 3b 43 3e 7e ed 0b e1 bf 0f 6a a3 27 ce 00 d8 3f
       -0.5327060189903031 0.37504915114337306
000250 2d ef c8 76 2d 4f d5 3f c6 83 63 69 f9 f9 e9 3f
       0.33295761680686803 0.8117644365666983
000260 59 6c 00 91 2c dc dc 3f 21 f0 3c 59 b6 d3 b8 3f
       0.4509383598357935 0.0969804733148867
000270 70 d6 0e 27 e3 59 c3 3f 80 1c d8 30 2e bf 9c 3f
       0.15118064314963275 0.028073045474255043
000280 20 05 d2 1b 0c a7 ce bf c2 e5 83 55 35 08 dc 3f
       -0.23947287901322856 0.4380009970769515
000290 d7 0e e7 3d 14 d4 d9 3f 0c 34 c8 50 f4 d1 e0 3f
       0.4035692791478431 0.5256291940473843
0002a0 25 4a 1c 7d 8f 93 d1 bf 14 12 3f eb 79 cd e6 bf
       -0.2746313783438004 -0.7125825495391518
0002b0 8e 1f 0e e2 8b 22 e6 3f bd 9b 40 d5 e2 69 c5 3f
       0.6917170920505542 0.16729388630593958
0002c0 93 90 16 55 89 93 e4 3f 44 b1 8c b9 f5 f8 d7 3f
       0.6430098211171916 0.3745703041083923
0002d0 ab 4b e5 af 43 87 e6 3f 70 19 e4 af f8 72 de bf
       0.7040117679083456 -0.4757672994313884
0002e0 90 45 b3 a1 1c 4d da 3f 45 90 cd 13 ea f9 c9 bf
       0.4109565333465861 -0.20293928114836227
0002f0 cc 44 1e 17 ad e4 d4 bf a4 fc a2 07 b8 a2 dc 3f
       -0.3264572835697208 0.4474315714432555
000300 ad 1a fa 98 aa 38 bc 3f db e6 f1 87 09 f1 da 3f
       0.1102396605948381 0.42096174503204303
000310 28 8f 7a b9 c7 d5 e1 bf dd a8 a9 63 2b 2f d9 3f
       -0.5573462126380706 0.39350399716080436
000320 aa d0 4d f3 a6 39 e2 3f 78 7f 53 a0 b5 46 c9 3f
       0.5695376159697123 0.1974703820078465
000330 da 6e c6 68 95 20 d6 bf 9c 73 01 98 52 b7 df bf
       -0.345738746947729 -0.49556412548354856
000340 7f 77 73 dc 7d 8b e0 3f 00 47 cc 22 c1 8e e5 bf
       0.5170277887043396 -0.6736760787627816
000350 41 62 97 ec b5 5f e4 3f 75 5f 68 32 77 ba c3 bf
       0.6366834278988521 -0.15412797890962407
000360 3f 66 de a0 b7 f3 e6 3f 42 96 d4 f9 3b 4d d7 bf
       0.7172506467788436 -0.36408900640012487
000370 c0 a0 e1 ba 1b ad de 3f 1c 70 b1 e5 20 cf d3 3f
       0.47931569337971425 0.30951712065666626
000380 b2 b7 ce 93 af 82 e1 bf d2 8d 3a 19 14 95 c1 bf
       -0.5472028624405907 -0.13736201507445728
000390 04 04 a0 e2 fd da c2 bf d8 26 d3 01 77 0a d9 bf
       -0.14730809751202412 -0.3912637250729012
0003a0 43 28 d2 49 8b eb e2 3f 18 5c 92 c6 b9 d4 e6 bf
       0.5912529413046815 -0.7134674909929144
0003b0 f6 22 41 63 2f d7 a1 3f 23 7f ef 8d 45 42 c0 bf
       0.03484485708810851 -0.12702245169111234
0003c0 48 c1 ba d5 fe b1 dc 3f f7 cb 30 8a 3c 02 d6 3f
       0.44836398002646094 0.3438865041272829
0003d0 f2 53 1c fd 3f 33 d6 bf 4e 4f 48 ad c6 c2 e1 bf
       -0.3468780490669011 -0.555026377146058
0003e0 24 23 57 68 cd 82 d4 3f 52 84 d9 86 00 a7 e2 bf
       0.3204835432957671 -0.5828859933645936
0003f0 0d be 0a 00 8c 54 b2 3f a1 cd 2a 87 65 21 e6 bf
       0.0716025829412887 -0.6915767326340082

bias f8 [64]
000000 d6 e7 8c 0a 06 40 e3 3f f7 b5 a1 6b e8 75 d4 3f
       0.601565380674624 0.3196965266314175
000010 2a e2 1f 7a f8 ea dd bf f5 5b c9 09 0a cd dd bf
       -0.4674664681074626 -0.4656396003314847
000020 41 45 62 90 cc a9 d3 3f 49 f1 6a ae 2c 46 b0 3f
       0.30723871326434354 0.06357077844854077
000030 5a 7f 41 1e d9 45 e3 bf 8a fa 21 f1 d0 01 db bf
       -0.6022763815817413 -0.4219858507930573
000040 ce 24 48 99 86 04 dd bf 63 16 98 ec 83 22 da bf
       -0.453401231469411 -0.4083566484917808
000050 7b bd 0a fc 0a 8b d3 bf 7c 5c fd a6 88 05 d0 3f
       -0.3053615056369023 0.2503377562292781
000060 30 cf d1 32 4e c2 e6 bf 1e 3a 05 23 d6 1a de bf
       -0.7112189285821611 -0.47038796825373363
000070 59 00 ad fa 5e 35 cd bf c2 2c c9 2f 1b 09 98 bf
       -0.22819125404385224 -0.023472237388244784
000080 2b 07 df 57 2b f1 d8 3f 65 f9 60 87 ed 17 e3 bf
       0.3897198064915865 -0.5966708797566694
000090 ec fe 77 09 fa 64 bf 3f fa e3 3c af 2e 7d d1 bf
       0.12263453227205517 -0.2732655249888577
0000a0 c1 80 9d 12 ea e1 de 3f 0b 69 3a ce fd cc de 3f
       0.4825387174405585 0.4812616838404586
0000b0 40 1f 66 b2 8e a0 93 bf f6 4a e3 5f db c5 d6 bf
       -0.01916716541157304 -0.3558262287526043
0000c0 cf 47 6c 2b 21 97 e4 bf 59 e9 cf fd 17 c8 df bf
       -0.6434484336953065 -0.4965877512583084
0000d0 c7 a6 3b 94 4a a0 e3 bf 81 e8 e1 e2 d3 bf d0 bf
       -0.6133168120552107 -0.2617082324646916
0000e0 97 e6 a8 3a e5 d1 b7 bf 1f 96 0c cd 37 8f e2 3f
       -0.09304650003550773 0.579982662665035
0000f0 fb 5f ca 24 df 0d e5 3f c2 14 17 55 2e 52 d2 3f
       0.657943317276476 0.286265929313526
000100 13 5d 61 bf 03 3d e0 bf 03 ec fa 37 19 1c e0 3f
       -0.5074480760476113 0.5034299939501355
000110 0f 6e 55 d3 87 9c d4 3f 9b 24 d2 66 c2 6f bf bf
       0.3220538677030342 -0.12279906282687351
000120 6a c0 cc 6e a0 55 ab 3f 34 45 a6 bd 0a f7 e1 bf
       0.05338765480553394 -0.5614064888087911
000130 fc 26 82 27 49 69 d2 3f 83 8d a8 c8 05 bb e4 bf
       0.28767613275759607 -0.6478299063787037
000140 8f 85 8d 9b 0d 92 da 3f da 35 a0 02 04 95 e7 3f
       0.4151643771238804 0.7369403888021069
000150 99 48 a9 90 ec cf e5 bf 94 86 86 6b de 67 e7 bf
       -0.6816313577094376 -0.7314293003184553
000160 a3 cd 83 ce 29 09 99 3f 29 b7 7d b0 11 d2 d0 3f
       0.024449017743746315 0.26282160029846807
000170 bc d2 c0 f2 85 36 db 3f a7 11 f0 b9 a1 fa de 3f
       0.4252028341900702 0.4840473476217774
000180 9d bb 26 55 bb c3 b4 bf e6 02 8a c4 67 60 d3 3f
       -0.08111162976159254 0.30275911515495435
000190 bf 3f b1 89 de 9e d8 bf 1f b3 63 60 c2 07 c7 bf
       -0.3846966118480814 -0.17992429453388412
0001a0 27 b8 b5 33 45 38 d4 bf 17 42 6b 5e 55 38 d6 3f
       -0.31593446779050044 0.34718832226374857
0001b0 5f 90 8f a7 ee 7b e2 bf ba db d9 25 82 8a b3 bf
       -0.5776284477874575 -0.07633222030732059
0001c0 42 a2 46 fb 3d de df bf 4f b9 2e 18 7e 2b e3 bf
       -0.49793958223975576 -0.599059149962878
0001d0 d9 e0 17 77 89 20 a6 3f 26 65 c8 43 26 2d e3 3f
       0.04321698740744901 0.599261410129803
0001e0 70 d2 b7 d0 ed 5b df 3f 50 a9 6b e3 c2 d1 cf bf
       0.4899858988058332 -0.24858890633124497
0001f0 db 9e 59 1e b6 56 b3 3f 09 f2 d0 a3 0d 9f b3 3f
       0.07554186097115283 0.07664571046274928

weight f8 [64, 64]
000000 b5 fe d6 f3 5b 4e c0 3f c9 fe 13 a7 6e ad bd 3f
       0.12739133268586547 0.11592761591964086
000010 30 39 de bb 9b 57 d5 bf 01 f9 54 7d 42 de cd bf
       -0.3334721884392762 -0.23334532851908565
000020 a5 4b 6a 6d 14 a3 b3 bf ff 1d 55 ae 38 d9 c2 3f
       -0.07670715018529835 0.14725407135323107
000030 04 b6 be 75 d5 8b e9 bf d9 e2 b7 ed e9 52 ce bf
       -0.7983195590692849 -0.23690532786692733
000040 07 92 6d a6 72 f9 c4 bf 42 68 31 de 9c 96 d8 bf
       -0.1638625443112149 -0.38419267366919396
000050 ed 86 6b 0f 4b d1 72 3f 6e 22 fb 9b 18 59 a0 bf
       0.004594128803292225 -0.03192974952759618
000060 5d 0c 32 b7 1e a6 d4 bf 5a ad 29 74 ab 7a dd bf
       -0.32263915910897883 -0.4606121668245656
000070 d9 1c b5 ac 3c dd cd bf 13 0d fa 7a a0 35 a0 bf
       -0.23331411774618152 -0.031659140598117606
000080 90 52 ec 20 86 22 73 3f 8b 79 dc a6 c5 6f d8 bf
       0.004671596469752473 -0.38182202620546296
000090 12 e7 bf 71 3e 40 b7 bf e1 57 3b dc a2 22 a6 3f
       -0.09082403447237322 0.04323300302864631
0000a0 ed bf 32 12 19 76 b4 3f c1 ff 5b bb 93 ed c7 3f
       0.07992703146260256 0.18693777702719497
0000b0 d8 83 24 eb 23 14 b3 bf 4b ef 0b f8 1b c5 cd bf
       -0.07452606669222861 -0.23257779704715129
0000c0 32 ca 54 b7 9a 73 c3 bf 78 08 80 5a f8 62 c5 bf
       -0.1519654650852132 -0.16708282870246527
0000d0 97 6d 94 6a 5e 4d d3 bf 2a 4c 5e eb ba 80 96 bf
       -0.3015972176378567 -0.021975441566223143
0000e0 cd 73 74 73 06 f2 c4 3f 86 d1 61 38 05 38 c9 3f
       0.16363602292486093 0.19702210667641057
0000f0 2d d3 5a 97 3f 1a d1 3f c6 49 17 cf 03 f8 b5 bf
       0.26722707539311125 -0.08581565671855804
000100 b1 dd 9b 19 17 73 d3 bf cb 8a a7 c0 7a 1d cb 3f
       -0.30389955044617084 0.21183714301067477
000110 d2 e6 4d cb 66 11 b2 3f ef 07 06 3b 57 1b 9f 3f
       0.07057802642330138 0.030377734162819022
000120 9c bd 07 9c b9 ae bd bf d2 79 07 e0 db 6f d0 bf
       -0.11594734248477895 -0.256827324656027
000130 85 d4 a6 8d 46 e3 c3 3f 3d f0 6b ab c2 2d b2 3f
       0.15537340084634735 0.07101074872110842
000140 da 17 8f 72 c3 10 a8 3f 48 33 98 30 b8 61 cd 3f
       0.04700289510178353 0.2295446622159949
000150 2f a3 b0 5d df 05 f0 bf 63 bc be fd f6 2f d3 bf
       -1.0014337215199693 -0.29980253963271347
000160 50 55 99 b9 47 98 b0 bf 1c 67 aa 96 90 1c 9d bf
       -0.06482361108040391 -0.028429278560543655
000170 af 3e a5 a4 c7 77 b8 3f ef 3a fc 29 1b 4c b0 3f
       0.09557769555726268 0.06366128706961736
000180 96 a1 19 a5 ff cb 8f 3f 56 fb 92 57 0c ec a7 3f
       0.015525815225559108 0.04672277993221623
000190 7f 8c 7b 4b 32 c0 cf bf 1d 1c 60 22 aa 98 80 3f
       -0.24805287061380807 0.008103684591345634
0001a0 aa cd a0 b2 5f ef bc bf f6 a2 1e cd 0c d3 c9 3f
       -0.11302755461729555 0.2017532350121411
0001b0 64 ea 11 b6 59 15 b4 bf 4c 63 a3 af 26 af b1 3f
       -0.07845078177516879 0.06907884395640201
0001c0 25 a2 5f cf 75 0e d1 bf c0 da e5 4b bb c5 b4 bf
       -0.26650758029294 -0.08114214518523521
0001d0 eb 0e 79 c2 a4 f8 b3 bf 46 da 46 3d eb 6d bd 3f
       -0.07801275012848989 0.11495847936644407
0001e0 f8 4f c9 03 bc ae c6 3f a4 10 23 2f 79 17 c1 bf
       0.1772074717033545 -0.13352885057077402
0001f0 b1 87 12 62 07 da ac 3f a2 3c 3f 2e 48 c0 b4 3f
       0.05635092804119724 0.08105898980214701
000200 5f db d5 80 73 9e be bf d7 c4 d5 f4 42 cd b9 3f
       -0.11960527320284829 0.10078829266946641
000210 88 de 9d 8e a5 fc b5 3f 4d 1c 1e 16 df 1c b8 3f
       0.0858863328156706 0.09419054307919446
000220 c6 48 b3 c9 dc a8 bc 3f 70 54 11 2e 34 c6 b2 3f
       0.11195163654636806 0.07333685040187432
000230 e6 99 c0 93 ed f6 b4 bf 3c b5 22 a1 fd f5 ac bf
       -0.08189282281146112 -0.0565642604063705
000240 00 c2 8a 8f 4d c5 ad bf ae 31 65 60 1b 9b 45 3f
       -0.05814592721197087 0.0006593593287021382
000250 8b 62 76 d2 93 8f b9 3f d6 fe 38 dc d1 95 be bf
       0.09984706772082512 -0.11947356821564922
000260 e6 39 fe ca 52 53 b5 3f 05 b0 95 c2 86 ad b8 bf
       0.08330266433606645 -0.09639780283549733
000270 ca 71 e9 89 2c a4 ba bf 28 7c 65 5c 1a f9 57 3f
       -0.10406759612073482 0.0014631993704694677
000280 24 6e 7a 81 59 13 6f 3f 7f bb df 38 52 02 bf 3f
       0.0037934063110023498 0.12112916840099607
000290 e1 6d c6 c5 5d 7c bd bf 68 57 08 f9 b5 f9 af 3f
       -0.11517892912382123 0.0624520174498418
0002a0 71 4d 12 8c dc 5c a2 3f 53 97 54 1a 91 8d bc bf
       0.035864727114268365 -0.11153513806183683
0002b0 de b7 62 98 8b b9 b2 bf 95 d3 56 73 45 4e be 3f
       -0.07314369650222782 0.11838182512185676
0002c0 17 87 9e 80 89 41 b6 3f fc cf 92 80 39 a9 bc bf
       0.08693751707189921 -0.11195716275216222
0002d0 4d 17 25 d1 cb 7a 8d bf 17 ec e2 9c fa ab ba 3f
       -0.014394371337981627 0.10418669061884632
0002e0 ca f3 b0 cc b7 c7 bb 3f 4d 81 35 28 5c 78 c0 bf
       0.10851620433181988 -0.12867309535341534
0002f0 e6 d5 3d fd a7 69 b0 3f b6 55 d2 dc b4 fd a9 bf
       0.06411218578963193 -0.050763751941456034
000300 12 15 81 52 57 da b3 bf ed 48 cd ac 20 5f a5 bf
       -0.07755037082923291 -0.04174139127157326
000310 0b 88 c9 98 c2 0d b1 bf 69 38 f0 99 81 ed b5 3f
       -0.06661621313244852 0.08565530784855614
000320 07 93 88 71 06 50 b7 bf 78 d0 61 09 8b 06 9a bf
       -0.09106483718694501 -0.025415584991109047
000330 53 4b 30 63 0e 38 aa 3f 80 32 69 84 48 65 a2 bf
       0.051208924873341964 -0.03592898002952882
000340 0b c7 44 16 f0 a1 91 bf 55 a7 d5 c6 9e 77 bc bf
       -0.017219306334658884 -0.11120025972709631
000350 7f 60 74 6e 62 58 b0 3f 1e 04 3a 41 1b 83 89 bf
       0.063848640409903 -0.012457096984919199
000360 71 1b fe 32 bb 8b 76 3f ac 74 0f 78 65 70 b9 3f
       0.005504351851306364 0.09937128239785648
000370 86 8d 9a 5c bb 7e c0 bf 94 57 b2 ae b0 df b6 bf
       -0.12886755010286438 -0.08935074105315116
000380 b1 5b 81 b0 06 3b 8d 3f ed 22 17 cf b1 b5 a6 bf
       0.0142727396598 -0.04435496952971172
000390 f7 bc ae 96 36 5d b3 3f 54 a7 58 89 45 af a3 bf
       0.07564107111715034 -0.03844659139242759
0003a0 78 bf f2 51 dc 89 af bf 57 52 23 e2 10 ec b7 bf
       -0.06159866810173659 -0.09344583054491672
0003b0 70 e3 b6 cb 0f b7 73 3f 9a ae 7f 19 47 f7 b5 3f
       0.0048132531186916155 0.08580440876510878
0003c0 12 6c e5 49 08 49 ac 3f 4c 92 bc fa f8 45 ab bf
       0.05524469282200796 -0.05326822338819123
0003d0 0e 53 33 86 46 ea c0 bf 0a eb 61 3d a7 3c a1 bf
       -0.13214952042348965 -0.03366587280557638
0003e0 2b b5 07 95 95 ed ae bf 9c fb ee 6b 0a 04 92 3f
       -0.06040637439933002 0.017593539083232565
0003f0 ce ff 84 19 32 2b b1 3f 14 68 a7 dd a0 54 91 3f
       0.06706536410365446 0.01692439415806042
000400 ea fb 9a 26 84 78 c2 bf ef 9a 36 06 9d e0 d1 3f
       -0.14430286297826395 0.279334312503507
000410 a6 2f 25 e6 c0 a2 bd 3f cd 33 2d bd 34 36 a4 3f
       0.1157646715047905 0.03947605904850313
000420 38 68 45 7e 43 80 af 3f 79 86 60 29 1b 86 a0 bf
       0.06152544895549322 -0.03227314834681478
000430 17 a6 a1 6d d1 c2 eb 3f 48 43 b3 93 ee 06 9a 3f
       0.8675315037955355 0.025417068257243686
000440 28 95 4c 93 e9 d2 c2 3f 70 60 b1 d8 aa 6a ce 3f
       0.14706153576222758 0.23763022976595805
000450 d4 a7 b0 78 5c 91 c5 3f 45 c2 9d 42 78 ed c5 3f
       0.16849857228345277 0.17130950215097776
000460 4f 7c b1 60 16 d7 c1 bf 98 1d c8 b3 39 1e e0 bf
       -0.1393764469275731 -0.5036896239625319
000470 5d cd 28 d6 b9 5a f6 bf f3 8b 17 c4 d7 ca be 3f
       -1.3971498838044092 0.12028263604547344
000480 c8 67 57 d5 1c a8 99 bf 7b cd 80 10 88 4e f1 bf
       -0.02505536129124389 -1.0816727299360014
000490 cd 14 d6 61 d1 6b 9e bf a3 d1 cc 08 ac 3a b1 bf
       -0.02970816764493094 -0.06730151381345321
0004a0 c5 8a 20 0d 32 36 d1 bf 6a 2c 03 1e 55 66 ba 3f
       -0.2689328315920359 0.10312396986698649
0004b0 05 be 98 63 eb 3b a8 3f 60 cd 8f 43 63 dc 96 bf
       0.04733214941768086 -0.022325087546005817
0004c0 7c 9c 98 25 6d 8a c9 3f fd 7e a6 57 48 d8 70 bf
       0.19953693710087694 -0.004112513148726069
0004d0 df 8d 61 bc a1 0f c2 3f e1 54 98 97 7b 4f d1 3f
       0.14110204408926472 0.27047624401286724
0004e0 79 db 49 7d 88 1c cb bf fa 95 42 48 54 6f c1 bf
       -0.2118082629928855 -0.1362099984009289
0004f0 d0 5e 91 ae f5 62 c4 bf 12 d7 82 ba de 98 c4 bf
       -0.15927001022168108 -0.1609152231882765
000500 fe 4e 60 fc d5 9e e2 3f a4 52 9b 47 50 3e ca bf
       0.5818891457770119 -0.20502665993139602
000510 2f 7b bd b7 e9 f6 b3 bf c3 e2 5e 17 5f e8 c7 bf
       -0.07798634277194759 -0.18677891389031318
000520 b5 ee 45 c6 61 ac d3 bf 15 aa 99 18 b7 18 c8 3f
       -0.3073963581334554 0.18825424863037257
000530 67 f0 75 36 ec 09 ab bf 08 98 83 c3 8f 6a ab bf
       -0.052810079238924605 -0.05354737531324366
000540 65 5e 7b fe cb ff c1 bf 94 29 a5 30 1d 2b d2 bf
       -0.1406188004100272 -0.2838814711618849
000550 9a 61 a3 d2 35 55 f4 3f cb fd 62 41 f9 5f cc 3f
       1.2708032825522424 0.2216788834830211
000560 d3 2f 7e 58 8f fd c8 3f ed 1c bf 60 69 2f c2 3f
       0.19523803540175652 0.14207188819839392
000570 69 21 81 c6 7d 2f bf 3f b1 cb 31 b1 fe af b2 bf
       0.12181840988444538 -0.07299796892202327
000580 46 b3 07 11 28 06 cb bf c4 7b 0c a5 d1 f6 c0 bf
       -0.21112538177058066 -0.1325323158170858
000590 1b b0 d0 f0 84 c4 cc 3f b0 e4 be c7 d9 5a ba 3f
       0.22474729307703076 0.1029487717304558
0005a0 a9 a8 98 ee 8e 27 83 3f 63 01 c1 eb 70 ee c1 3f
       0.009352795273191399 0.140089144815657
0005b0 30 88 d0 cf a0 2f 8b bf 2c d0 fd 8f 1b e2 ba bf
       -0.013274437276837942 -0.10501262917915771
0005c0 17 38 51 12 46 60 dc 3f 2f ee be ee 11 c7 bc bf
       0.4433760813598168 -0.11241256788974206
0005d0 05 9b 12 0f 37 b2 c0 3f d7 03 c6 d9 1b 1a 3a 3f
       0.1304386924359379 0.0003982847208803797
0005e0 17 d4 ad b4 42 bc d0 bf ed 6c d3 eb 44 cf c6 3f
       -0.26149051327166845 0.1782003547185477
0005f0 fc 44 41 1b a7 b6 cb 3f 7c a0 e5 50 0f 15 c8 3f
       0.2165116198616842 0.18814269495056013
000600 5a ba 83 51 8f 6b a1 3f 28 be dd 94 2b 62 c5 3f
       0.03402374143648919 0.167058417976919
000610 c7 f0 23 1a 00 22 d8 3f a3 12 9a 88 68 14 ce 3f
       0.37707521965763785 0.23499781293880515
000620 98 a4 31 fe dd c3 91 bf de 58 b5 6c 1f 28 c3 3f
       -0.017348736419454086 0.14966194923426362
000630 77 1b f9 aa 50 fb ea 3f 37 5a 03 3c 14 ab d5 3f
       0.8431781138723257 0.3385668359818825
000640 07 14 35 8f 57 cf da 3f 04 04 a3 d4 28 d9 c6 3f
       0.4189051531323575 0.17850218184142375
000650 a2 dc e5 d2 aa c2 c0 3f e5 46 66 b5 bf 14 bb 3f
       0.13094077394246023 0.10578535250376893
000660 7e 3c 8d 91 42 3b e0 3f 92 21 be 90 51 c5 c4 3f
       0.5072338908011174 0.1622716862441505
000670 fa ad 83 b6 d9 e4 a6 3f 82 b6 52 41 c3 1e c2 3f
       0.04471474030455265 0.14156380357365
000680 ce a0 6c 30 d3 3f b7 bf 3c 18 16 6d 7f d3 b8 bf
       -0.09081764156565272 -0.09697719968070911
000690 3a 12 5c 02 48 21 bd 3f 31 6a e1 85 40 4a bb 3f
       0.11378908212288588 0.1066017462593798
0006a0 04 d9 a6 14 48 9c a7 bf 15 9f e4 2b 85 35 a1 bf
       -0.04611420871826691 -0.033611451728857634
0006b0 4a a1 ad 94 b8 43 93 3f f2 de b1 c1 c7 08 dd 3f
       0.018813022684669257 0.4536609069395886
0006c0 a8 29 17 59 e7 58 da 3f d4 f5 5b 10 ad 21 ba 3f
       0.4116762514137471 0.10207635545153632
0006d0 95 83 a9 42 f5 50 d8 3f c0 d5 23 21 59 1d c1 3f
       0.3799412871358581 0.13370813482440091
0006e0 3e d1 c5 8e e7 0e 9f bf 4a e0 a1 9b e0 93 cd bf
       -0.030330293740420837 -0.23107535933718487
0006f0 d9 a2 b5 bd 3a 65 d1 bf 79 a0 ee e4 f9 27 bc 3f
       -0.27180355573959286 0.10998498763240318
000700 35 8f 8a 83 bd 7a ca 3f 91 9f 84 df 68 8b c6 bf
       0.20687073634064182 -0.17612944520919574
000710 44 6d 20 3e 90 ad bc 3f 6f 7e 66 58 b2 82 92 bf
       0.11202336804165208 -0.018076693196802326
000720 78 0e 88 6a 7c f9 a2 bf ee 19 c7 72 36 32 dd 3f
       -0.03705967712815278 0.45618973931087126
000730 20 c2 2f e2 75 b8 c4 bf 12 f1 c7 99 9a 81 a0 3f
       -0.16187928718820022 0.032238799354646144
000740 6d 43 86 3e bf 28 be 3f 1f 26 f3 8e b2 c3 bd bf
       0.11780925060726384 -0.11626735677705156
000750 30 37 8c d1 44 61 f4 3f a0 12 d8 4a eb 41 d6 3f
       1.2737472711045932 0.3477733832262775
000760 6e 70 f2 7b e7 4e d2 3f 39 eb 64 4c f8 ba c4 bf
       0.28606593231393773 -0.16195586900888673
000770 b4 97 c4 8e 17 9b bd bf 40 a5 b0 a9 42 af b8 bf
       -0.11564776645226865 -0.0964242615015296
000780 86 79 cf 47 2a e7 9f 3f de 8d 00 44 f5 f3 af 3f
       0.031155262597047727 0.062408127356572626
000790 5b 4d 47 d9 d5 70 d2 3f af c5 fe 3d 15 d4 98 3f
       0.2881369230137431 0.02424653235329338
0007a0 ba 9d 9b 12 a9 fe 8f 3f 66 9a e9 22 e3 db 7f bf
       0.015622444992415708 -0.007778060199234637
0007b0 32 23 ba de f6 73 cf 3f c7 13 26 31 8d c9 d7 3f
       0.24572645068499238 0.3716767291992337
0007c0 5d d5 d1 0a 13 c0 84 3f 10 e2 84 81 f8 92 88 bf
       0.010131977813424948 -0.011999074413879846
0007d0 ef b3 03 cb 68 dc 97 bf 04 ff e4 55 d2 e0 b1 bf
       -0.02330173243619876 -0.06983675572427833
0007e0 84 f3 4b cb 32 db a4 bf b1 86 30 38 6d 1e c7 3f
       -0.04073485118531209 0.18061604732161166
0007f0 02 2d d5 d4 c5 be af bf 4d f5 42 40 11 2d c4 3f
       -0.06200235579543724 0.15762534749766602

bias f8 [64]
000000 f4 7a 33 e3 aa 3c c9 3f 10 94 1f 94 a3 12 bd bf
       0.19716392606547795 -0.11356565824787901
000010 c0 95 76 c6 c3 cd a4 bf 1a 10 47 77 33 e7 9c 3f
       -0.04063236043593177 0.028225711970449742
000020 78 38 3f 70 1a 10 b5 bf 95 51 b9 c4 43 13 cf 3f
       -0.08227696648029503 0.24277541261347993
000030 0e ba 5e 8f f5 44 bf 3f e8 00 e9 41 63 73 b1 bf
       0.12214598417515551 -0.06816692694792759
000040 49 05 b6 6d 83 f3 90 bf 6d b8 0d 3f 48 2d ae bf
       -0.01655392987368501 -0.05893922586152276
000050 5f 30 4a f4 14 01 a5 3f c6 b6 29 d3 cf cd c8 3f
       0.04102387888005476 0.19378087816897088
000060 6e e0 75 a1 2a 22 83 3f f6 59 2b fd 1b 85 c0 3f
       0.009342511227018426 0.12906217443260432
000070 f2 38 aa cd a6 0d bc 3f ef 77 50 f4 3a 23 c0 3f
       0.10958330651394357 0.12607514314089438
000080 15 9f c0 a7 7e 07 cb bf 5a 21 ec 71 bd a6 9e bf
       -0.2111662215331697 -0.02993293769671488
000090 dd fd 23 7c 38 16 b2 3f 24 fa 94 73 71 df b7 bf
       0.07065156012321645 -0.09325322219681503
0000a0 11 0f ea 6b b5 15 b7 3f 06 7c 86 4f 56 a9 b4 bf
       0.090174998136771 -0.08070887986694694
0000b0 aa 22 13 fc 8c 13 9f 3f e4 ea 38 f3 eb c8 cc 3f
       0.03034801758329545 0.22488164306726965
0000c0 06 f6 98 03 35 17 b2 3f 49 ac 13 cd 69 a1 93 bf
       0.07066661203221977 -0.019170430318734586
0000d0 59 63 9b 2d 0e a4 b3 3f ca 04 f6 54 67 63 ae bf
       0.07672203648998045 -0.05935213958856307
0000e0 c6 b5 2f d6 f6 4a b5 bf 09 83 49 3d c7 49 cc 3f
       -0.08317511300238953 0.22100153439080142
0000f0 35 de 8e 43 17 d1 ba bf e8 7d 9f de 60 ef c5 3f
       -0.10475297355048314 0.1713677489305916
000100 f5 66 05 6f 8b ce 8c bf be 19 71 d9 cc 67 cf 3f
       -0.014065827680201684 0.24535523049617142
000110 e1 c5 0e 8e e8 17 b7 bf f5 1d ee b1 f0 4d c5 3f
       -0.09020856350141272 0.16644104660029738
000120 94 35 49 5e 25 6f 9b bf f6 58 72 bb 8b 25 b2 3f
       -0.02679117572761454 0.07088540388426509
000130 9d bd 5f 65 c6 84 c0 bf 60 ed fb 6d 3c ac 83 bf
       -0.12905197095777235 -0.009605857950637897
000140 7f ac d3 06 13 02 c5 3f a1 2c 66 3f 74 85 b7 bf
       0.1641258033117516 -0.09188009784536401
000150 54 dc 0a 08 d8 70 c2 3f 43 31 eb e6 6d 26 63 bf
       0.1440687217015887 -0.002337660457987807
000160 69 97 d2 d8 b9 bb c4 bf 4a da 94 8a 3d 25 c6 3f
       -0.16197894179384356 0.17301148668930671
000170 5c dd 4c 76 69 5a 5d bf 74 1d fe 42 f4 c0 bc bf
       -0.0017915754226132874 -0.11231924663126397
000180 f0 78 c5 75 4a da b5 bf 42 59 34 80 f0 73 b6 bf
       -0.0853621041801238 -0.08770659570686681
000190 ed 1b 8b 54 9e f7 a3 3f df fa ca d8 dc d0 c6 3f
       0.03899855405830253 0.17824898324575764
0001a0 88 59 8e 62 e6 a2 b4 bf bf 45 d2 47 50 40 be 3f
       -0.08061065584329274 0.1181688475937994
0001b0 bb a2 ee fe 45 93 98 3f d7 ba b5 0a 06 41 90 3f
       0.02399930351717459 0.01587304535262998
0001c0 71 af 8a e6 c1 51 a7 bf c4 32 c9 82 7e 78 cf 3f
       -0.045545634643842876 0.24586469064742833
0001d0 d0 0a e6 2d 86 a3 c1 3f 83 ca 4f 07 4c 7b b0 bf
       0.13780286065237712 -0.06438136271007448
0001e0 98 af 53 74 a3 03 c4 3f d7 1d 6a 14 6e e0 b5 3f
       0.1563610380175049 0.08545578001405062
0001f0 b4 68 35 4b 49 26 a7 bf 41 15 52 00 ba e2 b6 3f
       -0.04521397631715854 0.0893970728667073

weight f8 [64, 64]
000000 c3 75 e1 ec cf f7 b1 bf d6 62 62 73 3c ca a5 3f
       -0.07018756421299259 0.04255856426715858
000010 29 27 d5 4f 2e 76 d3 bf 10 f4 17 99 a7 a3 b5 3f
       -0.30408819004206805 0.08452842223773893
000020 18 33 ff 40 b2 68 bb 3f 85 ab 42 b4 e3 fa cc 3f
       0.10706628882253388 0.22640653898028176
000030 e3 c6 4b 90 42 8e aa 3f e7 88 c9 2f f6 44 d1 bf
       0.051866607774980776 -0.26983408610079923
000040 2f 16 5c 98 5d 53 d7 bf 98 e9 e2 91 15 bc d0 bf
       -0.3644632327926471 -0.26147975203243723
000050 1f 6f e5 a2 66 fb b6 3f 62 a2 8f 78 02 aa ad bf
       0.08977357365568793 -0.057937695710113216
000060 43 cb 90 50 da e3 b1 3f 96 5d 2e 55 57 ac be bf
       0.0698830076878894 -0.11981721715561941
000070 c0 b6 09 ad 68 f0 9e bf 2f 75 6d f1 e0 a2 ed bf
       -0.030213962136648176 -0.9261326518423284
000080 b0 4a 04 40 e7 33 99 bf cb 5c 0f 52 7b 65 d6 3f
       -0.024612057955048783 0.34994395269081896
000090 a4 31 66 ac 1c c0 98 3f d0 77 f7 8a 05 44 be 3f
       0.02417034914246731 0.11822542803517355
0000a0 3b bf 14 11 74 e9 e9 bf 08 5e 95 89 c2 33 c1 3f
       -0.8097477277387733 0.13439208715384177
0000b0 f0 62 79 82 18 fd d7 3f 12 b1 bd fe 8e 40 f4 bf
       0.37482273809068456 -1.2657613707370428
0000c0 d2 1d 2c 10 ae 8b b2 bf 22 a4 51 2d 44 dc d2 bf
       -0.07244384665329243 -0.2946939890449035
0000d0 d8 50 f7 43 b8 0c ad bf fa 59 34 84 d4 7a b2 bf
       -0.0567376692739871 -0.07218673923157573
0000e0 6c 1b b4 a9 aa c2 b7 bf 37 57 c9 53 cf 19 d0 3f
       -0.09281412737992206 0.25157530958437085
0000f0 79 39 20 a2 ff dc b5 bf 90 35 92 fa a2 8b ce 3f
       -0.08540342052604001 0.2386363719455571
000100 a9 89 ba fb a1 4d ee bf b2 91 66 51 da ad ea bf
       -0.9469766537261438 -0.833722266183534
000110 17 5b bb 62 4a 90 b8 3f 44 85 49 3a 0d 2d d3 bf
       0.09595169935651558 -0.2996247357569539
000120 cc b1 7a f1 01 97 af 3f bd f7 db 63 4a b2 c6 3f
       0.061698971488428705 0.17731599689426317
000130 fb 83 dd 19 12 a6 fb bf 1d e1 1b 8f 38 8d b4 3f
       -1.7280446062434283 0.08027986043805808
000140 8d 02 37 8b 3c 26 c4 3f e6 b9 4c a6 99 1e c0 bf
       0.15741688535310452 -0.12593384380438905
000150 60 9c 9e b6 fb a1 cf 3f 24 c7 16 b8 db 29 d2 bf
       0.24713083664866797 -0.28380482652129246
000160 17 b2 fe ca 4f a8 d9 bf 99 60 94 50 8d 61 f0 bf
       -0.4008979303714865 -1.0238164088860116
000170 b7 ce 4f 7c 29 ef b4 3f a7 15 ad 85 3b d6 a9 bf
       0.08177432331995758 -0.05046258932865593
000180 a7 20 6d 24 d1 13 b1 3f c1 9c 9f ae 93 fd bb 3f
       0.06670863284409966 0.10933802617329304
000190 00 e0 cf 58 28 2a c5 3f 26 7f 6e ae e4 fb b5 bf
       0.16534904800914774 -0.08587483652672442
0001a0 5c 91 65 ac 37 eb e1 bf 51 66 a7 79 d6 96 7c bf
       -0.5599630705951699 -0.006979787629882121
0001b0 b5 e0 26 01 b2 d9 fc bf 88 97 db a0 24 6a e8 bf
       -1.8031482739443565 -0.7629569188836607
0001c0 e2 06 d2 5a 84 93 de bf 6c af 5e 02 89 4f ea bf
       -0.4777537238042965 -0.8222088857923899
0001d0 98 0e 5f e5 16 e3 a4 bf ea ac 5c 35 76 f9 b3 3f
       -0.0407950549120219 0.07802523424895794
0001e0 6d 39 b6 c6 f7 2a d9 3f 6c 38 0e b4 3e cc b2 3f
       0.39324755101633607 0.07342903037917531
0001f0 17 a0 50 c4 02 b7 ae 3f 05 51 50 99 a4 48 c5 3f
       0.05999001165793077 0.16627938734075812
000200 54 bc 89 ce 43 51 cb bf 3a 61 6b c8 51 ce b7 3f
       -0.2134175070272898 0.09299193518689189
000210 f1 f7 e9 6b 95 35 be 3f 6d d1 ee 84 d6 db d3 3f
       0.11800512203805603 0.31029284459807266
000220 cd 7e 77 f0 f9 c2 6a bf dc f9 0a a6 c6 a8 bd bf
       -0.0032668000819596533 -0.115856566942035
000230 e6 48 5e 18 64 e8 c8 3f 08 1c 75 41 dc dc ad 3f
       0.19459201040132895 0.058325655928051445
000240 df a1 ce cd f6 5b aa bf 34 86 a1 33 57 ad b0 3f
       -0.05148288023275759 0.06514496813317622
000250 b6 0e 20 ed 14 cd 98 bf 1c fd 65 f2 3b 6f b3 3f
       -0.024219824765181662 0.0759160486977532
000260 ff eb 23 db 54 d1 c8 3f 87 b3 92 2f da 7a b1 bf
       0.19388828945361067 -0.06828082715465032
000270 92 ea 3c 37 36 36 a0 bf bb 40 07 68 59 83 e1 bf
       -0.03166360306064066 -0.547283843212447
000280 ab fa 67 48 14 b3 d3 3f 43 8f bd fe 75 7b c1 bf
       0.3078051287738314 -0.13658022821902635
000290 f1 38 9a a1 a3 f5 bf bf 21 56 85 69 67 56 a3 3f
       -0.124841906503409 0.03776858485313662
0002a0 6d c0 5b 3c 35 6b d4 bf 37 6d 5d fa fa 54 c5 3f
       -0.31904345411658747 0.16665589547015155
0002b0 4a 7a 17 fa b2 2c b9 3f 3b 1d 34 9b d9 f0 e4 bf
       0.09833830457453377 -0.6544006377525088
0002c0 e6 4b a9 98 2d f3 c5 3f 78 7d 7a 99 43 f5 af 3f
       0.17148370699086896 0.06241809128300252
0002d0 62 44 67 2f c5 71 b9 3f f2 c1 3e d9 bb ca 78 bf
       0.0993922463160444 -0.006052717002532836
0002e0 14 f9 0d 36 bb 62 e6 bf 27 a7 52 fe 0a 0b d0 3f
       -0.6995521598580887 0.2506740077611646
0002f0 f3 55 41 4a f5 cf 95 bf fd 2e 71 40 65 e1 c4 bf
       -0.021301109940699402 -0.1631285252245717
000300 f4 e7 10 96 a6 bc c6 3f eb c3 31 ba 71 f7 cf bf
       0.17763216330951048 -0.24973889915011624
000310 77 96 e7 af 84 d6 94 3f 93 ee a7 62 00 f9 c0 bf
       0.020349572407118956 -0.13259892289339756
000320 e0 2c 6b 54 5a 2c b5 3f 3e a1 1a ce 24 e9 c9 3f
       0.08270802079202921 0.20242748321221343
000330 d7 b2 98 10 60 3d cb bf 16 ce 3c e3 17 e2 b4 bf
       -0.2128105240857596 -0.08157491014281279
000340 af 2d 18 ce 72 67 c8 3f b8 2f 48 6a 25 99 b0 3f
       0.19065699637608932 0.06483682484412057
000350 16 ed f7 13 7b e9 bc 3f ee 2f 8c 90 0d cf b5 3f
       0.11293763387213959 0.0851906278514318
000360 cd 9c 14 57 4b e3 c1 bf 8f 85 cd 6e d1 4d e2 bf
       -0.13974897148111723 -0.5719992794148981
000370 72 15 b4 f9 dd e9 cd 3f 51 6c 2d 36 71 f8 c3 3f
       0.23369955723334673 0.1560193552530529
000380 36 ff d0 5b bf 35 b2 bf b9 a8 a0 fe dd 87 ba 3f
       -0.07113262168513476 0.10363566843503492
000390 6c f1 c1 67 95 95 a1 bf 4f d3 1b d4 90 2c 9e 3f
       -0.034344357410165255 0.029466879793250297
0003a0 e7 2f 1a 2b 7d 1a 8f bf 41 e9 16 f4 e3 f4 b6 3f
       -0.01518724239146958 0.08967423161712863
0003b0 88 0b 0b bb 14 5b c6 bf 41 2b ee 71 37 f5 d8 bf
       -0.17465457089391756 -0.38996683240900515
0003c0 81 0e 6f 96 03 d4 b6 3f 9a 6b d7 1a 17 30 ed bf
       0.08917257712078631 -0.9121203922508017
0003d0 1b 8e 42 f6 b8 bf c0 3f 09 d7 c1 5f 96 79 b4 bf
       0.13085090660489204 -0.07998027646848639
0003e0 82 59 ed cc 87 ff ca bf de 20 d6 b8 c9 22 c6 3f
       -0.21092317110260345 0.17293664479462384
0003f0 9d 31 71 d9 9c 68 bf bf d1 ff 20 54 5f 2f ba bf
       -0.1226900130142838 -0.1022853451149779
000400 76 0f 03 c4 14 0f 96 bf 41 86 f1 0d b7 75 b7 3f
       -0.021541904891605644 0.09163993921676995
000410 8c 74 6c 3b 1c a3 88 bf 28 0e 73 78 66 fa c2 bf
       -0.012029858172861084 -0.14826660996742302
000420 8b 3a c5 04 4e 2e cc 3f e0 9c 28 d3 f5 5c d7 3f
       0.220163109139737 0.3650488435836916
000430 fe 82 a7 e0 60 9a 97 bf 18 86 28 e4 dd 3e c3 bf
       -0.023049844466984652 -0.1503560413412266
000440 29 3c be b8 c8 5c b1 bf 36 5a 1e 56 f0 68 bc 3f
       -0.06782202253656124 0.11097623922828678
000450 f7 b4 52 8b c5 b7 a8 bf 70 75 94 03 e0 f7 b0 3f
       -0.0482770664760696 0.06628227317238156
000460 47 fa 5a ec 1e 00 a5 bf 78 48 cf 83 78 76 b2 3f
       -0.041016546585059425 0.07212022035608523
000470 96 df f8 77 76 2a d4 3f 25 1b ca 41 7a bb d0 bf
       0.31509172168761646 -0.2614427225566252
000480 93 87 52 ca 80 de cc bf 0c 77 84 af 8b c5 a2 3f
       -0.22554025534651298 0.03666340367838758
000490 a5 1b a2 5b c4 60 bc bf 2c 16 e9 6d f8 5d a7 3f
       -0.1108515475954009 0.045638812462623995
0004a0 0d a7 d8 71 2d 38 c9 bf b9 4b 2c 1b 80 b2 c3 bf
       -0.19702690180684393 -0.15388490034874083
0004b0 12 c1 b9 1d de 07 b1 bf da d1 30 1e 18 95 a4 3f
       -0.06652630067560875 0.040199998555553854
0004c0 1e 70 20 e2 a4 06 90 3f 7d 33 0a 76 00 01 ab 3f
       0.015650345136336445 0.05274201813617816
0004d0 a9 48 6d 93 fc 09 bc bf 53 72 dd d8 7b 49 be 3f
       -0.10952738379754358 0.11830877346569339
0004e0 dd 00 54 ca ae a5 c4 bf 95 98 40 7a 71 ec d2 3f
       -0.16130623702338812 0.29568135203079154
0004f0 fc 5b fa 9a 07 62 b4 bf 94 6d c9 e6 90 11 de 3f
       -0.07962081464425802 0.4698221448686237
000500 ad 3c e1 99 a2 c9 be bf 1b df b1 b9 d0 e4 ad bf
       -0.12026420838195646 -0.058386347453902775
000510 24 c1 d8 ff 2c 63 b1 bf 12 65 2d 97 07 b9 b4 3f
       -0.06791955229050878 0.08094832840778945
000520 cd 7c b2 af 11 0f bc bf 38 c8 b2 0f 00 74 c4 3f
       -0.10960493602259476 0.15979004637262206
000530 1c f4 7f 4e ae d9 d1 bf a5 37 d2 01 7c 81 b3 3f
       -0.2789111868476668 0.07619452518903687
000540 1e 59 ae 8a 8d 4c b3 3f 37 0a 70 44 98 e9 a1 3f
       0.07538685451286084 0.03498531184597591
000550 97 bb 88 19 12 84 b8 3f eb 8b 8a 3f 74 93 a9 3f
       0.09576523898497978 0.049953110462659676
000560 94 dc ec 1d 3c 26 b0 bf 54 07 a4 e7 d9 e6 96 3f
       -0.06308341723057459 0.022365002406338277
000570 04 bd e6 f5 80 6f c6 3f 79 57 ac 2a e0 38 af bf
       0.1752778244676635 -0.06098080178178029
000580 a1 1b af 11 32 15 bf bf 0e d3 cc 39 74 56 a5 3f
       -0.12141716891993194 0.041675216727901185
000590 64 76 f6 89 32 03 c6 bf 18 1e b7 11 65 59 bd 3f
       -0.1719725774427615 0.1146453064203502
0005a0 36 ad 1e a4 68 b9 be bf 36 6e 01 96 1c 6a d0 3f
       -0.12001661307174491 0.2564765419863052
0005b0 a5 11 45 ac d3 84 b3 bf 23 67 0a 04 ca 76 d8 bf
       -0.07624552684598614 -0.38225031275361426
0005c0 ab a7 81 c7 fd 89 9c 3f 10 ff 0e 6a 07 8d d3 3f
       0.027870145131977313 0.305482724736053
0005d0 20 3a e8 12 35 ef a3 3f 98 1f 92 ce 1f 0e bc bf
       0.03893438201713573 -0.1095905188868741
0005e0 3a 3c 4e b2 b4 76 de 3f f2 e9 08 cd 42 08 b2 3f
       0.4759952298417748 0.07043855195744422
0005f0 82 bd cb e5 f6 5d a1 3f c0 b5 31 f5 4d 57 c4 bf
       0.03392001681447267 -0.1589143225896077
000600 ad cb fe f4 2f 9c c0 bf d1 74 84 bc 75 47 ac 3f
       -0.1297664591089335 0.05523269582975277
000610 32 ce d0 d8 18 07 d0 bf e4 6d ea 45 8a 5d c6 3f
       -0.25043317006495436 0.17472961820463617
000620 52 57 82 c3 5c c1 c1 3f af 50 78 cb 47 c8 b8 bf
       0.13871345087380377 -0.09680603711632572
000630 a4 3e a7 b1 b0 15 d9 bf b0 7d 54 88 6b 4f be 3f
       -0.3919488654037002 0.11839935377474009
000640 eb d2 9b d4 be de b1 bf 40 e5 66 be 1c 48 d6 bf
       -0.06980507555619979 -0.3481513842958357
000650 e7 88 eb 33 ea 5e b2 3f 44 6a 97 7e 68 74 c1 bf
       0.0717607857473329 -0.13636499577735794
000660 c5 62 64 a2 ff 07 c8 3f 1a 98 f1 40 83 0e d7 bf
       0.18774409703543973 -0.36026078550492147
000670 55 05 ff 38 b9 3d c0 bf 24 36 68 72 ce bc b0 3f
       -0.12688365252510417 0.0653809575380469
000680 e0 c7 1c 41 cc 5d aa 3f 87 7e 78 71 73 b3 c8 3f
       0.051496870945257234 0.19297640839157656
000690 7e c0 99 ad 73 4e b3 bf ca 04 7d 13 04 4e b7 3f
       -0.07541583050056208 0.09103417850294018
0006a0 d7 e1 10 b7 e2 b7 cf bf 23 44 5c 4e 1f 00 d0 3f
       -0.24779924334303757 0.2500074639547753
0006b0 32 d2 2c 13 e9 77 d8 3f 51 6d 9a c6 bb 7a b0 3f
       0.3823187529808677 0.064372764575116
0006c0 98 15 6e 29 d2 8d 9a 3f 1c 6e b3 0a 22 50 b7 bf
       0.025931628969848214 -0.09106648217441954
0006d0 11 48 48 08 43 fe 8c 3f bd 87 11 f5 4a 52 b3 bf
       0.014156840982682469 -0.07547443850628972
0006e0 7f 0e 78 d9 1b e8 be 3f 89 50 63 88 33 bc 9d bf
       0.12072919902134947 -0.029038243483981794
0006f0 08 e4 aa 10 35 ce c1 3f 69 55 b2 40 70 cd c1 bf
       0.13910544694752525 -0.13908198508276406
000700 3f 83 92 bb e8 ea 88 bf 94 51 7d d7 fb ca b8 bf
       -0.01216680357384947 -0.09684728632902867
000710 28 91 fe 3b 28 78 8b 3f 55 85 f9 5a 95 93 68 bf
       0.013412775355228293 -0.0030000607583110885
000720 84 82 69 bf 53 81 54 bf 7c 16 6e 43 c9 81 ad 3f
       -0.0012515371178311316 0.05763081501121989
000730 e4 43 35 3c fe 98 99 bf af fe 60 e4 55 35 bb bf
       -0.024997684883888996 -0.10628258538872147
000740 e9 df 6e 52 ac 8c dd 3f ec 21 57 d2 2e 6c a7 3f
       0.4617110066424162 0.045747245003045695
000750 02 0a 61 d2 7b 85 d1 3f c0 5d 4c ba 7e f8 de bf
       0.2737721971972463 -0.48391693299478433
000760 fb c6 a8 36 d4 5c 96 3f 25 77 36 b8 c7 1b d3 bf
       0.021838489376199793 -0.29857056607748894
000770 2b c3 d1 b0 e3 fa d7 bf a2 26 a8 de 35 be d0 bf
       -0.37468807475584026 -0.2616095232375334
000780 b1 66 b1 cf b0 69 b5 3f d0 46 3e bc ca 4d a5 bf
       0.0836439616263316 -0.04160913036242919
000790 da 0f 4e d9 df d4 c3 3f 06 9a 95 64 bf e9 dc bf
       0.15493391142456298 -0.4517668230313635
0007a0 fc db 0f 40 32 bd d5 3f 85 0c 27 cc 90 b6 c2 bf
       0.3396726251225457 -0.14619646042237747
0007b0 1c 29 c4 78 d1 fe e0 3f ef 07 28 56 a1 32 b7 3f
       0.5311057432857385 0.09061630586077717
0007c0 93 7a 2e 7a 7e a7 d9 bf 12 52 c9 dc d4 21 e0 bf
       -0.4008480256251598 -0.504129821036772
0007d0 03 48 bb 87 0a e4 c6 3f 32 c0 a9 4c d9 84 b4 bf
       0.178834263110332 -0.0801521122136826
0007e0 8d 89 82 ed 0c f0 d2 bf 3c cd f5 22 71 cc cf bf
       -0.29590151972129136 -0.2484265728668137
0007f0 48 28 7c 2d a8 83 ac bf cf a7 c9 d3 ac df d0 3f
       -0.05569196276890459 0.26365204508203716

bias f8 [64]
000000 23 6d 54 de 11 29 b4 3f 1e 68 f9 cc fe f2 c0 3f
       0.07875167539571186 0.13241562851436667
000010 d5 03 58 03 86 30 c7 3f 23 eb 31 f5 f1 8b bf bf
       0.18116831935188196 -0.12322914348798668
000020 fe 27 f7 7b e8 1c b6 bf 03 63 f6 0d 14 d1 b0 bf
       -0.08637860323429433 -0.06569028225784383
000030 70 53 3d 8e aa ef b1 bf ee 20 88 b7 71 70 a5 3f
       -0.07006326649327632 0.04187350621583784
000040 37 58 12 16 f5 cc c6 3f e5 9f 65 6c f0 fa c4 3f
       0.17812980249135688 0.16390805523701527
000050 d0 ae a2 5f ea aa 7a bf 23 fd fb ef a1 2c ac 3f
       -0.006510653993398299 0.05502801947113258
000060 68 2e 37 01 59 39 c2 3f 0b b8 eb 39 4f e0 b3 3f
       0.14237511214593046 0.07764144100266905
000070 0a 85 20 e8 63 2b bd bf 05 c1 73 ff ed ce c1 bf
       -0.11394333283580607 -0.13912749264955707
000080 aa b0 00 4f a6 75 c9 3f e2 4b 46 ec e6 ce b3 bf
       0.1989028821711874 -0.07737582462713946
000090 00 55 73 2b 48 4f c2 3f 2d 6f 97 06 20 92 c5 3f
       0.14304449197394575 0.1685218841729407
0000a0 da cb ca da 2c 13 a1 3f 2c 37 50 0d e7 0a c0 bf
       0.033349420269040045 -0.12533271932664414
0000b0 b6 59 31 aa 27 50 c8 3f 64 8d 13 7c b8 db c1 3f
       0.18994613466447924 0.1395178418962174
0000c0 5d ff 64 62 06 14 91 3f 3d c9 93 d5 dc dd a8 3f
       0.01667795157959461 0.048567677566000424
0000d0 68 54 7f 15 0d ad be bf b9 46 db 4d 3f e2 cd 3f
       -0.1198280503734438 0.23346701909627202
0000e0 34 f3 07 a9 2d 71 ab bf a8 9a 6a b2 a4 c3 b5 bf
       -0.05359785736434333 -0.08501653056974112
0000f0 e3 18 46 44 c6 5e a5 bf 96 b3 05 cf 7d 77 b4 bf
       -0.04173869689388867 -0.07994829468016315
000100 4e c0 07 1d fc 8c 94 bf 1b e3 68 6f 37 1e a8 3f
       -0.020069064399592933 0.04710553393346669
000110 ee 2b ca 07 03 a1 d5 3f 56 11 c7 36 f5 31 90 3f
       0.3379523826667413 0.015815574138984566
000120 30 7b ee be 76 56 33 bf ed cc 67 27 57 15 bd 3f
       -0.0002950706393053835 0.11360687934920906
000130 7f 4a 99 36 7a 0c c1 bf 60 7a 24 c1 37 3d 8b bf
       -0.13319327989536942 -0.013300357419720743
000140 57 11 9b 62 1b c9 c1 3f 59 00 57 f0 6c bf ba bf
       0.1389497977708156 -0.104483421971055
000150 a6 df 7a 1e 96 f0 a3 3f 63 d5 1b 5f 4b 6c bb bf
       0.038944903584194265 -0.10712119171133376
000160 19 b8 99 d2 a1 67 c0 bf 42 29 61 50 23 c5 a9 3f
       -0.12816260131097648 0.05033216816134935
000170 3e a2 88 97 ca 0c bb 3f 61 45 dc ca c8 1f b9 bf
       0.1056639308886895 -0.09814124062201791
000180 d5 ba 78 1f 81 c1 b0 bf 4c ec 6d af 49 7b c9 3f
       -0.0654526426157916 0.19907494607818632
000190 83 5d 2a f3 9c a1 c9 bf f4 cc 1f 0f 58 66 d0 3f
       -0.20024453996004973 0.25624658085798946
0001a0 50 f0 fa a0 32 31 c3 bf fe 10 a6 33 fa a3 a8 3f
       -0.14993889675486338 0.04812604790189033
0001b0 28 ca f5 3c 7e 6f 94 bf 6d 93 d0 82 1c 4a b3 bf
       -0.019956562491140556 -0.07534959977836105
0001c0 d5 93 46 a4 78 e3 a5 bf 7a 8b bb f7 95 d7 b2 3f
       -0.04275109296148797 0.07360207842024905
0001d0 a4 df c7 34 f3 84 d0 3f 1c f5 e5 81 45 d9 c9 3f
       0.25811462549563147 0.20194310038270025
0001e0 fa 4f d1 66 cd 4f ce 3f ee ba 6b cd a7 fb b9 3f
       0.23681037445442127 0.10149620785862698
0001f0 c0 2c 34 ca 1d d6 bc bf 4d c7 90 3d 5e f1 be bf
       -0.11264215647331621 -0.12087048533501595
